…
5764,"user_tz":-330,"elapsed":28930,"user":{"displayName":"Joel Joseph","photoUrl":"https://lh3.googleusercontent.com/a-/AAuE7mBUwED9VotWOJ0pw4gDxqfCfDXQA_wuN4BJifDQLQ=s64","userId":"00237746097866084659"}},"colab":{"base_uri":"https://localhost:8080/","height":408}},"source":["model.summary()"],"execution_count":0,"outputs":[{"output_type":"stream","text":["_________________________________________________________________\n","Layer (type)                 Output Shape              Param #   \n","=================================================================\n","flatten_1 (Flatten)          (None, 3468)              0         \n","_________________________________________________________________\n","dense_1 (Dense)              (None, 2000)              6938000   \n","_________________________________________________________________\n","dense_2 (Dense)              (None, 1600)              3201600   \n","_________________________________________________________________\n","dense_3 (Dense)              (None, 1400)              2241400   \n","_________________________________________________________________\n","dense_4 (Dense)              (None, 1600)              2241600   \n","_________________________________________________________________\n","dense_5 (Dense)              (None, 2000)              3202000   \n","_________________________________________________________________\n","dense_6 (Dense)              (None, 3468)              6939468   \n","_________________________________________________________________\n","reshape_1 (Reshape)          (None, 34, 34, 3)         0         \n","=================================================================\n","Total params: 24,764,068\n","Trainable params: 24,764,068\n","Non-trainable params: 0\n","_________________________________________________________________\n"],"name":"stdout"}]},{"cell_type":"code","metadata":{"id":"zf0n-FyZdwtD","colab_type":"code","outputId":"1e7c74a4-e105-408b-c376-cd29026bf7b6","executionInfo"
…
